     "execution_count": 387,
      "outputs": [
        {
          "output_type": "stream",
          "text": [
            "Model: \"sequential_45\"\n",
            "_________________________________________________________________\n",
            "Layer (type)                 Output Shape              Param #   \n",
            "=================================================================\n",
            "conv1d_160 (Conv1D)          (None, 2, 10)             327690    \n",
            "_________________________________________________________________\n",
            "max_pooling1d_160 (MaxPoolin (None, 1, 10)             0         \n",
            "_________________________________________________________________\n",
            "conv1d_161 (Conv1D)          (None, 1, 10)             1210      \n",
            "_________________________________________________________________\n",
            "max_pooling1d_161 (MaxPoolin (None, 1, 10)             0         \n",
            "_________________________________________________________________\n",
            "conv1d_162 (Conv1D)          (None, 1, 10)             610       \n",
            "_________________________________________________________________\n",
            "max_pooling1d_162 (MaxPoolin (None, 1, 10)             0         \n",
            "_________________________________________________________________\n",
            "conv1d_163 (Conv1D)          (None, 1, 10)             310       \n",
            "_________________________________________________________________\n",
            "max_pooling1d_163 (MaxPoolin (None, 1, 10)             0         \n",
            "_________________________________________________________________\n",
            "dense_56 (Dense)             (None, 1, 2)              22        \n",
            "=================================================================\n",
            "Total params: 329,842\n",
            "Trainable params: 329,842\n",
            "Non-trainable params: 0\n",
            "_________________________________________________________________\n",
            "Train on 2000 samples, validate on 2000 samples\n",
            "Epoch 1/100\n",
            "2000/2000 [==============================] - 2s 887us/sample - loss: 0.6929 - accuracy: 0.5030 - val_loss: 0.6924 - val_accuracy: 0.5000\n",
…
