Model: "sequential_11"
_________________________________________________________________
Layer (type)                 Output Shape              Param #   
=================================================================
conv1d_8 (Conv1D)            (None, 2, 10)             327690    
_________________________________________________________________
max_pooling1d_8 (MaxPooling1 (None, 1, 10)             0         
_________________________________________________________________
conv1d_9 (Conv1D)            (None, 1, 10)             1210      
_________________________________________________________________
max_pooling1d_9 (MaxPooling1 (None, 1, 10)             0         
_________________________________________________________________
conv1d_10 (Conv1D)           (None, 1, 10)             610       
_________________________________________________________________
max_pooling1d_10 (MaxPooling (None, 1, 10)             0         
_________________________________________________________________
conv1d_11 (Conv1D)           (None, 1, 10)             310       
_________________________________________________________________
max_pooling1d_11 (MaxPooling (None, 1, 10)             0         
_________________________________________________________________
dense_20 (Dense)             (None, 1, 2)              22        
=================================================================
Total params: 329,842
Trainable params: 329,842
Non-trainable params: 0
_________________________________________________________________
Train on 8192 samples
Epoch 1/200
8192/8192 - 27s - loss: 0.5086 - accuracy: 0.7313
Epoch 2/200
8192/8192 - 26s - loss: 0.4654 - accuracy: 0.7614
Epoch 3/200
8192/8192 - 25s - loss: 0.4653 - accuracy: 0.7609
…
